pet_classifier.onnx (onnx, 17916 bytes, 5 tensors)

sequential/dense_2/MatMul/ReadVariableOp:0 f4 [32, 1]
00000000: f259 c03e f0f2 033e 4e0e b2be 9a23 cebe
00000010: c123 ab3e ae0d 47be e5c7 683e 0529 9c3b
00000020: 76b3 613f d457 1fbe a207 ae3e c1f2 8cbe
00000030: b15a d63e 382c c0bd 63cc a1be 4cb0 bd3e
00000040: c3b5 1fbe cb52 603e 0f41 0f3e 6c6a 623e
00000050: c07d 9f3e 708f dfbd 2dbd b23e 8dc6 623e
00000060: 1fd6 9f3e fe09 973e d8fc 4cbe 8a3e e1bd
00000070: dce4 ae3e f55a a53e 0772 4a3e 9efb bebe
0.37568623 0.12885642 -0.3477654 -0.40261537 0.33425716 -0.19438812 0.22732504 0.004765632
0.8816446 -0.15560848 0.33990198 -0.27528957 0.41866067 -0.09383434 -0.31601247 0.37048566
-0.1559668 0.21906583 0.13989662 0.22110909 0.31150627 -0.109160304 0.34909955 0.22146054
0.3121805 0.2949981 -0.20018327 -0.109982565 0.3415898 0.32295957 0.1977006 -0.37301344

sequential/dense_1/MatMul/ReadVariableOp:0 f4 [64, 32]
00000000: 44e1 77be 8416 26be 9882 7fbe a06e de3d
00000010: 3461 1a3d 8889 e7bd 083a dcbd 208f 45be
00000020: e029 a43c c0dc 4b3e 708e f2bd f856 a33d
00000030: b8c9 c63d 80a9 44bd 803f 6fbe bc04 20bd
00000040: 6771 a33b 909f d13d d0dd 1c3d 8416 04be
00000050: b8fa f23d ec42 6f3e 285d 1b3e 6863 de3d
00000060: d03e e73d a8cc 5abe 40d9 2dbd c000 1bbe
00000070: dc2d 70be 87ef ad3c 7433 6bbe 78f2 9cbd
00000080: 9c3a 523e 88b3 79be 00a7 29be 6cd9 a7bd
00000090: 6b46 093e 6517 6d3e 7bd7 00be b865 e63d
000000a0: a01b 003e 8c9a 28be 7e48 5fbc 76e1 42be
000000b0: ad77 2c3e 3005 3bbd d84c 163e c3f4 803e
000000c0: 2f46 023d 28b9 34bd b07c 1f3e 93c5 3abe
000000d0: 6ca5 2abe 94a2 41be 1e75 44be 7774 1f3d
000000e0: 4d01 5bbe afd4 0ebe 574f 413e 6000 383e
000000f0: 0f81 38be d00d 2c3d 7e68 8dbd 31e5 c2bd
00000100: c45a 78be a035 39be 064b 313e e96f 383d
00000110: a4b6 3d3e c893 9f3d 4401 b23d 00f8 1b3c
00000120: 6093 5f3e d4cd 7fbe f955 39be 80c3 3fbe
00000130: a817 913d 1893 353e 92db fabc be07 d9bc
00000140: c0db 073e 6c80 02be 20b5 dfbc c8e8 e5bb
00000150: e419 14be 3810 cb3d 0001 d2bb cbcb 2cbb
00000160: 9619 f1bd 9320 df3d 9421 483e 5c32 2e3e
00000170: c0aa 3f3d 240a 6cbe 9f40 04be 30a2 6c3e
00000180: ae27 133d c0e8 913d 4715 4fbe e05f 583e
00000190: 99c9 fd3b a6ff 33be 6f90 1b3e 8ff9 32be
000001a0: 8668 34be 18ad e13d dea8 313d 1cc3 42be
000001b0: dd10 533e d066 bebd 8948 1cbe c601 02be
000001c0: 55c3 a2bd 8a88 813d 027c d53d 7d9d 6cbd
000001d0: 50b3 b4bd 2c28 3e3e cf0d 42be 0e4c b0bd
000001e0: dbef 27bc 9eb5 89bc e52c 46be 7092 39be
000001f0: b424 1dbd efef 38be 0cf3 42be 3043 1a3e
00000200: 0b2a 8a3d cc71 66be f862 383e fb6b 083d
00000210: d0f0 c23d aa1c f8bd 248c 243e cf6c 1dbe
00000220: 4145 eb3e 4026 10bc 7f7f 0c3e 83e5 453e
00000230: 36ca f6bd 282e eb3d 59e8 2abe 110a 873e
00000240: 0b8e c2bc c25d df3c 8057 213e 2592 4c3e
00000250: 682e 26be 100f db3d 55bb c9bd e6f5 823e
00000260: 41dc 12bd 0772 35be 4052 a3bc ab3c 4abd
00000270: 0617 973e b239 363e e0fa aabd 6669 49be
00000280: 6459 73be 88ef b33d 5056 f5bd 18bb 1fbe
00000290: 7089 4abd ec4b 423e 085a 2c3e 0c16 473e
000002a0: 60a4 87bd 408d 95bc 6046 173e ac21 49be
000002b0: 4091 1ebe 1033 2c3d 5022 1abd 4026 58be
000002c0: c890 cebd 6cf9 433e a082 80bc 202b b93d
000002d0: 7032 c4bd 8c4d 6ebe 64fa 6b3e 9823 13be
000002e0: 245d 543e fcdd 2b3e f8f4 11be e4f8 093e
000002f0: 60a7 4a3e 4082 6b3d 20a0 e1bd eca2 51be
00000300: c24b 793e 90b4 76bd 0279 013e 4d2b d23d
00000310: bd69 2cbe 679a b93d 03d8 dd3a da45 8d3d
00000320: a29a ae3e 0020 b4ba bec5 7e3d 51bb 86be
00000330: aa8b 2b3e 2083 753d 85fc 023e 9cfe 23bd
00000340: cf15 3abe 0bbb 123e 9b04 4abb 4840 823e
00000350: 5816 d0bd 446e 77be 6343 6d3d 46ad 0abe
00000360: 759e e73d bd72 e43d 231e 1d3e 57c6 55be
00000370: 3453 e2bc ae7a 853e ce2f 19bd 27f2 303c
00000380: c015 e0bd 3c96 11be 7a69 6b3e 8e89 63be
00000390: 7893 3d3e 9901 053e 97d1 083e 70ac 78be
000003a0: 096a 7cbd 404b 66bc c1a7 2a3e 8421 33be
000003b0: 9a28 513a a09f 253d d85f 393d a8a8 0ebe
000003c0: ee07 3a3d 00e7 1bbd 27a2 6f3e 0e32 073e
000003d0: b01f 593e b003 19be c84c 2fbc 32ed de3d
000003e0: 9a6e 8a3d d6e8 0f3e 0caf 4dbe 65b1 1cbd
000003f0: 44b6 203e 7c39 efbd a671 fcbd 0d59 023e
-0.24207026 -0.16219527 -0.24952161 0.10860944 0.037690356 -0.11305529 -0.10753256 -0.19292879
0.020039499 0.19908428 -0.11843574 0.07975572 0.097064435 -0.04801321 -0.23364067 -0.039067015
0.004987884 0.10235512 0.038297474 -0.12899214 0.11864227 0.23365372 0.15172255 0.10858804
0.112912774 -0.21367133 -0.042443514 -0.15137005 -0.23454994 0.02123238 -0.22968847 -0.07663435
0.2053017 -0.24384892 -0.16567612 -0.08195767 0.13405769 0.23153456 -0.125822 0.1124987
0.12510538 -0.16465205 -0.013628123 -0.19031319 0.16842528 -0.045659244 0.14677751 0.25186738
0.031805214 -0.04412189 0.15574908 -0.18239431 -0.16664666 -0.18909675 -0.19185302 0.03892943
-0.21387215 -0.1394832 0.18877922 0.17968893 -0.18017982 0.04200536 -0.06904696 -0.09516371
-0.24253374 -0.18086863 0.17313775 0.0450286 0.18526703 0.07791859 0.08691648 0.009519577
0.21833563 -0.24980861 -0.18099202 -0.18726921 0.0708459 0.17731893 -0.030622277 -0.02649295
0.13267422 -0.12744302 -0.027308047 -0.007016275 -0.14463001 0.09915203 -0.0064088106 -0.0026366587
-0.11772458 0.10894885 0.19544059 0.17011398 0.0467937 -0.23050743 -0.12915276 0.23108745
0.035926513 0.07124472 -0.2022296 0.21130323 0.0077449796 -0.17577991 0.15191816 -0.17478012
-0.17617998 0.11019343 0.043373935 -0.19019741 0.20611902 -0.09296954 -0.15262045 -0.12695989
-0.07947413 0.06324871 0.10424043 -0.05776738 -0.08823264 0.18570012 -0.1895058 -0.08608256
-0.010250057 -0.016810235 -0.19353063 -0.18122268 -0.03836508 -0.18060277 -0.19038028 0.15064692
0.067463 -0.22504348 0.18006504 0.033306103 0.095185876 -0.12114842 0.16069084 -0.15373538
0.45951274 -0.008798182 0.13720511 0.19325833 -0.120502874 0.11483413 -0.16690196 0.26374868
-0.023749372 0.027266387 0.15756035 0.19977625 -0.1622864 0.10696232 -0.09850184 0.2557823
-0.03585458 -0.17719279 -0.01993668 -0.049374264 0.29509753 0.17795447 -0.08348632 -0.19669113
-0.23764569 0.08785921 -0.119793534 -0.15598714 -0.049447477 0.18974274 0.16831219 0.19442004
-0.06623149 -0.01825583 0.1477294 -0.19641751 -0.15485096 0.042040884 -0.03763038 -0.21108341
-0.100862086 0.19138116 -0.015687287 0.090414286 -0.09579933 -0.2327177 0.23044735 -0.14369047
0.20738655 0.16783899 -0.14253604 0.1347385 0.19790411 0.057497263 -0.110168695 -0.20472306
0.24345306 -0.06023079 0.12643817 0.10262165 -0.16837211 0.09062653 0.0016925338 0.06898089
0.3410235 -0.0013742447 0.0622003 -0.26314786 0.16752496 0.059939504 0.12791641 -0.040037736
-0.18172382 0.14329164 -0.00308255 0.25439668 -0.10160512 -0.24163157 0.057925593 -0.13542661
0.1130952 0.11154697 0.15343527 -0.20876442 -0.027627565 0.2607016 -0.037399106 0.010799921
-0.109416485 -0.14217466 0.22989455 -0.22220442 0.18513286 0.1298889 0.13361202 -0.2428453
-0.06162456 -0.014056027 0.16665556 -0.17493254 0.00079787674 0.040435433 0.04525742 -0.13931525
0.04541772 -0.038062096 0.234017 0.13202688 0.21203494 -0.14942813 -0.010699458 0.10885085
0.06759377 0.14053664 -0.20086306 -0.038255114 0.15694529 -0.11680886 -0.12326364 0.12729283

sequential/dense_1/BiasAdd/ReadVariableOp:0 f4 [32]
00000000: 129e f63b 0000 0000 396b aabc 55ce dcbc
00000010: 3002 903a 288d b3bc 95d2 4c3d 8d69 7ebc
00000020: a0fb 9a3e 0000 0000 ab84 193d 717a afbc
00000030: ca68 173d 0000 0000 3c29 ccbc a4c2 173d
00000040: ed8b febb 22fb 9e38 32ea 0e39 7f8b a53d
00000050: 0000 0000 0000 0000 8fa1 183d 91ae 1c3d
00000060: c6bf 183d 4c2d 1d3d 2705 dbb8 5705 fcbc
00000070: 09fe 903d ebc6 303d 8a79 1b3d 418a c2ba
0.0075261677 0.0 -0.02080308 -0.026953856 0.001098698 -0.021917894 0.050005514 -0.015528095
0.302701 0.0 0.037480038 -0.02142069 0.03696517 0.0 -0.024922006 0.03705086
-0.0077681453 7.580804e-05 0.0001362942 0.080832474 0.0 0.0 0.03726345 0.038252417
0.037292264 0.038373277 -0.000104436935 -0.030764265 0.07079703 0.043158453 0.037957706 -0.0014842228

sequential/dense/MatMul/ReadVariableOp:0 f4 [30, 64]
00000000: 80ce eb3d 9be0 80be ca36 493d e6bf 77be
00000010: b711 e83d af1b 2cbe d149 593e 61fd 0dbe
00000020: 8c3d c1bd 79f5 153e d29e 5e3e 295a 683e
00000030: 6901 53be b9ba 2e3e 7ea1 3dbb 8bd0 683d
00000040: 9bbb 09be 630e a8bc 9620 0c3d f2a7 22be
00000050: 58dd 11bd 8f41 323d 23a3 103e d0c0 bdbc
00000060: 921f 013e afb5 8bbd 31c0 4a3e e6d4 193e
00000070: b305 b93d 2f5b 7ebe 9f4d b43d 12b1 3f3e
00000080: 80f7 533e feb9 b93d 4b6d 1abe 33db 393e
00000090: 9c9a 5a3e 9015 523e b4b3 6d3e 72fb 6f3e
000000a0: ddf0 efbd 5011 bcbd e1bc 54bd 807d 7abe
000000b0: 51ca 6dbd 4ba6 453d 1438 593e 1015 d6bd
000000c0: 43df 41be 643c 78bd 39fa 2c3e 98b9 8c3e
000000d0: 57cb a63c b3b2 2ebe 73e4 3e3d 3313 a5bd
000000e0: 8259 2f3e 76d8 3dbe a133 7e3c 061f 48be
000000f0: 9197 bdbc add1 0e3e f450 a03d ed85 193e
00000100: b3f9 053c a945 cf3d da41 56bd 85b4 2a3e
00000110: ea35 55be da1b 74be 1d4c 443e 3f77 a73c
00000120: c138 61be ff71 51bd 8a84 65be 8f0b b13d
00000130: 3d8a 423e dcd6 c7bc 9ad5 133e e166 e9bc
00000140: 62fd 7e3e 6050 4c3e b6a9 68be 778d 80be
00000150: d980 293d 9c77 86bd f661 1e3e c346 35be
00000160: e484 82be 7bb4 a33e 6232 d2bd 6cbe 36bd
00000170: cb59 6ebd 8a87 953d 0cc6 8e3e ace8 38bd
00000180: 32af fabd 1d8b f73c 7ab7 233e 0337 85be
00000190: 60a3 20bc 8c25 643e 4c6f 92bd af7e 2a3e
000001a0: 82ec 423e ac70 593e de4d 863e e4b1 02bd
000001b0: fea7 0fbe 82d9 a03d 9f6f 4abe 6f34 05be
000001c0: 5445 0fbe 920f 4abe ac87 11be b003 753e
000001d0: 32a8 5b3d ca26 3f3e 5273 6f3e 4e99 28be
000001e0: 3536 b33e fecd 50be fbb7 10be 76bd 3cbd
000001f0: 3acb 0d3e 681f 483e a1d5 5fbe 42e0 89bd
00000200: 8280 4cbe ee2f 1bbe c315 76bd a6aa ebbd
00000210: 743d c8bc b0af d3bd 575d dabd 3621 5ebe
00000220: 58d1 3e3e 6386 ed3d 5932 cabd e617 fbbd
00000230: 0cab 093d f2c6 13be 23d1 4abe a81c 833e
00000240: f283 8f3e 6ec6 833c 77e8 8a3d 0b8e 6b3d
00000250: 61f4 6a3e 4783 6e3c 64db 2a3e 0487 d3bd
00000260: 3bdc 13be 6c0c 973e 705c b9bd 8f81 10be
00000270: c2a3 00bd 3152 b6bd c274 b13d 2adf 6b3e
00000280: 584b 933d 2cae 613e dd7e 1b3b b111 683e
00000290: e470 0c3e f459 80bd 5e06 94bd 5d2c 493c
000002a0: 8b25 a5bd 19f6 3cbe d263 053e 4ffd 6bbe
000002b0: 62b5 193e 084c 223c 93f8 30bc 4490 6abe
000002c0: 2f7a ef3c 0440 4fbd 47c2 2e3e b355 653e
000002d0: bc1b 34be f648 3a3e 5c65 6c3e 439d e13c
000002e0: 47cc 563e 46db 8a3d 32be 81be 058c ee3d
000002f0: 3cc5 49be 5c85 643d 702a 873d 63ad ebbd
00000300: 2e40 0e3e d481 2b3e 92b0 313e 5bf2 32be
00000310: cbee 043e 8a83 5c3e 4f27 923d 79d0 5dbe
00000320: 80d6 653c 6681 24bd 762f 32be bdec a8bc
00000330: 4de3 513e 9067 833d 548d 4dbe 959f 8c3e
00000340: cd6d b23d 72a1 3a3e 775a 103e 333a 79be
00000350: ff33 1f3e 4366 823e f6cd 7bbc 302e c43d
00000360: ec0b 01be b28d 663e 618a 313d bf7e 823d
00000370: 8283 6f3e a16f 84be f8a8 d33d 400a a73d
00000380: 6753 51be 0c93 3f3e 2b32 483d 75d3 6cbe
00000390: ec08 4fbe c16d a8bd 8443 1abe ee6e 97bd
000003a0: 02b7 1b3e b02c 1cbe a0f6 7f3e 26cf 353e
000003b0: 1d6c 373e 08a8 933d 5597 be3d ec26 1fbd
000003c0: 3a9d 71be 808c 1dbb f52a 313d 6c9c 643d
000003d0: 1cef 6ebe 0526 09be 877c 993d 3306 683e
000003e0: 7e77 ef3e 74e2 a3bd 5b24 67be 0c2a 9cbd
000003f0: a374 64bd 731c e13d 143c 2dbe 87d3 3d3e
0.11513996 -0.2517136 0.049124517 -0.24194297 0.11331504 -0.16807435 0.21219565 -0.13866188
-0.09435567 0.14644422 0.21740273 0.22690643 -0.20606007 0.17063417 -0.0028935368 0.056839507
-0.13450472 -0.020514673 0.034210764 -0.15884379 -0.03561148 0.043519553 0.14124732 -0.02316323
0.126097 -0.06821763 0.19799878 0.1502262 0.0903429 -0.24839471 0.088038675 0.1871989
0.20699883 0.09068678 -0.15080754 0.18150024 0.21348041 0.20516038 0.23213083 0.23435763
-0.11715863 -0.091829896 -0.05193794 -0.24461937 -0.058054272 0.048254292 0.21212798 -0.10453236
-0.18932824 -0.060604468 0.16892327 0.27485347 0.020360632 -0.17060356 0.046604585 -0.080603026
0.17123988 -0.18539605 0.015515239 -0.19543085 -0.023143562 0.13947172 0.078279406 0.14992495
0.008177209 0.101207085 -0.052308895 0.16670425 -0.20821348 -0.2383875 0.1916966 0.020442603
-0.21994306 -0.051134106 -0.22413841 0.08644783 0.18998046 -0.024394445 0.14436951 -0.02849144
0.24901345 0.19952536 -0.2272099 -0.2510793 0.041382644 -0.065657824 0.15467057 -0.17702775
-0.25492013 0.31973633 -0.10263516 -0.044615194 -0.058191102 0.07301243 0.27885473 -0.04514377
-0.12240447 0.030217702 0.1598796 -0.26018533 -0.009804577 0.22279948 -0.071501344 0.16649888
0.19035533 0.21234387 0.26231283 -0.03190793 -0.14028928 0.07853986 -0.19769143 -0.13008283
-0.1399129 -0.19732502 -0.14211911 0.23927188 0.0536272 0.1866714 0.23383835 -0.16464731
0.35002294 -0.2039108 -0.14132683 -0.04607912 0.13847056 0.1954323 -0.21858837 -0.06732227
-0.19970897 -0.15155002 -0.060079347 -0.11507158 -0.024443366 -0.10336244 -0.106623344 -0.21692356
0.18634546 0.11597898 -0.09872884 -0.12260418 0.03361039 -0.1443136 -0.19806342 0.256078
0.28030354 0.01608583 0.067826204 0.05750851 0.22944786 0.014557666 0.16685253 -0.103284866
-0.1443948 0.29501665 -0.09050834 -0.14111923 -0.03140617 -0.089023955 0.08664848 0.23034349
0.07192105 0.22039098 0.002372674 0.22662999 0.1371494 -0.06267157 -0.07227777 0.012278643
-0.080638014 -0.18453254 0.1302636 -0.23045848 0.15010598 0.009905823 -0.010801452 -0.22906595
0.029233066 -0.05059816 0.17066298 0.22395973 -0.17588705 0.18191895 0.2308554 0.027540809
0.20976363 0.06780104 -0.2534042 0.116478 -0.19704145 0.055791244 0.06599891 -0.1150768
0.1389167 0.16748744 0.17352512 -0.17475264 0.12981717 0.21534553 0.07136404 -0.21661557
0.014028192 -0.040162466 -0.17400917 -0.020620698 0.20496865 0.06416237 -0.20073444 0.274655
0.08712349 0.18225649 0.1409701 -0.24338607 0.15547179 0.25468644 -0.015368929 0.09579122
-0.12602204 0.2251499 0.04334486 0.06371831 0.2339001 -0.25866416 0.103349626 0.08156252
-0.20441972 0.18708438 0.04887597 -0.2312754 -0.20218247 -0.08224059 -0.15064818 -0.07394205
0.1520653 -0.15251422 0.24996424 0.17754802 0.17912336 0.07209784 0.09306208 -0.03885548
-0.23595133 -0.0024040043 0.043253858 0.055813238 -0.233334 -0.1339341 0.07494455 0.22658615
0.46770853 -0.08002177 -0.22572462 -0.07625207 -0.055775296 0.109917544 -0.16917449 0.18537723

sequential/dense/BiasAdd/ReadVariableOp:0 f4 [64]
00000000: 2a17 2c32 a95d 18bd e0b0 d3b9 01ca bcbc
00000010: dbb7 6e3d 0000 0000 d2db 123e 17c1 74bb
00000020: 550f dfbc fa49 a0bc 6a21 783a dad2 52bc
00000030: 4956 7d3d 5b5b 59bb a3d7 d2bb 695f 473d
00000040: e9c7 a13d a46e 543d 404f 723d cb32 8638
00000050: 6091 dd3d 4d78 3c3d c919 443c 0000 0000
00000060: 01f5 dcba 2ff6 073e b4d7 bab7 b827 d93d
00000070: 8961 913b c1ee 0cbd 681e 893d b594 463d
00000080: 699f e8b8 f762 513d 6057 dfbb ab08 84bc
00000090: 0000 0000 e3c7 d13d 3b0d 3639 6b45 403d
000000a0: dcbe 4bbc 0000 0000 f6da 5c3d 8081 f3ba
000000b0: 7949 fb30 3e21 d1bb 4e62 883d 140e 92b8
000000c0: 392b 0338 0000 0000 5989 2cbd d37b c23d
000000d0: 268b 9c34 f14e 9f3b 2c83 393d c19a a43b
000000e0: b905 123f 0d80 7c3d e4fa dbbb 5392 04bd
000000f0: d0a8 83bc 2762 8ebc 0000 0000 0dd7 af3d
1.0016985e-08 -0.037198696 -0.00040376838 -0.023045542 0.058280807 0.0 0.14341667 -0.0037346536
-0.02722899 -0.019566525 0.00094654283 -0.012867654 0.061849866 -0.0033166024 -0.0064343973 0.048674975
0.07899458 0.051863328 0.05915761 6.399079e-05 0.10818744 0.046013165 0.011969038 0.0
-0.0016857685 0.13277505 -2.2273372e-05 0.10603279 0.004436676 -0.03440738 0.06695253 0.04848166
-0.000110923145 0.05111977 -0.006815836 -0.016117414 0.0 0.102432035 0.00017361801 0.046941202
-0.012435641 0.0 0.053919755 -0.0018578023 1.8283536e-09 -0.0063821366 0.06659375 -6.964445e-05
3.1273088e-05 0.0 -0.042123172 0.09496274 2.9158508e-07 0.0048617055 0.04529111 0.005023331
0.5703998 0.061645556 -0.006713258 -0.03236611 -0.016071707 -0.017380787 0.0 0.085859396
